notebooks_NN/model_weights_crossing_lines.pth (torch, 9226 bytes, 14 tensors)

f1_fc1.weight f4 [5, 2]
0.38387305 -1.0153752e-05 -0.043439336 -1.607999e-05 -0.039857667 -5.744516e-06 -0.049339306 -2.0618259e-06
0.11484025 1.5598926e-05
00000000: 028b c43e 085a 2ab7 72ed 31bd 84e3 86b7
00000010: cb41 23bd 04c1 c0b6 0318 4abd e65d 0ab6
00000020: 5d31 eb3d 70da 8237

f1_fc1.bias f4 [5]
-6.3193398 1.0625584 1.7192214 0.13654368 0.6835986
00000000: 0838 cac0 ea01 883f 720f dc3f 1bd2 0b3e
00000010: 5100 2f3f

f1_fc2.weight f4 [10, 5]
0.015423295 0.61248803 0.56752264 0.81340945 0.15909944 -0.49664348 0.45317432 0.62519723
0.61829937 0.6710026 -0.20817031 -3.7295554 -3.679408 -4.0662055 0.29793254 0.004884771
0.61771303 -0.20070843 -1.1986201 -0.5675531 -0.5163491 -6.567857 -7.185852 -7.1983
-0.07681216 0.4354012 1.30685 1.8548087 1.3883903 -0.29932165 0.394236 1.864084
2.3210785 2.0329912 0.034410007 -0.40796375 -0.46262497 -0.7088551 -0.2965155 0.5594573
0.38197076 2.0225902 1.8276677 2.1207407 0.08206724 -0.94098616 -1.6575568 -0.50063425
2.5393434 0.40324855
00000000: fdb1 7c3c 04cc 1c3f 2a49 113f 9a3b 503f
00000010: f7ea 223e 0e48 febe 7706 e83e ed0c 203f
00000020: de48 1e3f d4c6 2b3f 992a 55be 09b1 6ec0
00000030: 6c7b 6bc0 5b1e 82c0 9d8a 983e 6e10 a03b
00000040: 7122 1e3f 8386 4dbe 626c 99bf 294b 11bf
00000050: 742f 04bf e22b d2c0 80f2 e5c0 7958 e6c0
00000060: b24f 9dbd e8ec de3e dc46 a73f 5f6a ed3f
00000070: c6b6 b13f b040 99be 4dd9 c93e 4e9a ee3f
00000080: 8d8c 1440 871c 0240 82f1 0c3d a0e0 d0be
00000090: 2edd ecbe 8777 35bf e1d0 97be 9838 0f3f
000000a0: ac91 c33e 1e72 0140 04f1 e93f 37ba 0740
000000b0: de12 a83d 78e4 70bf d22a d4bf 9129 00bf
000000c0: 9a84 2240 9876 ce3e

f1_fc2.bias f4 [10]
-0.5240981 -0.11081933 3.4787862 -0.0058330363 7.6345124 -1.0044569 -1.9936088 0.35985827
-1.7109509 -0.7065719
00000000: 4b2b 06bf 3ff5 e2bd 6fa4 5e40 0e23 bfbb
00000010: ed4d f440 0b92 80bf 932e ffbf 583f b83e
00000020: 7000 dbbf e5e1 34bf

f1_fc3.weight f4 [5, 10]
-0.43660662 -0.2630292 0.4928427 -0.64619917 0.28376228 -0.17698255 -0.17875816 -0.3400073
-0.12426429 -0.08441827 -0.060439095 -0.32858908 0.34095067 -0.17842455 0.6333795 0.007555259
-0.32109487 0.09183325 0.02100284 -0.25832665 -0.18542156 -0.026142504 0.025452882 -0.31617942
0.15423268 0.19779602 -0.14560851 0.22118871 0.083542414 -0.16936179 -0.032235395 -0.015227412
-0.006762223 -0.17176352 0.7661725 0.033096593 0.19562216 0.25772506 -0.22697447 0.12091225
-0.5574104 -4.528148 1.6973306 -5.2316194 -4.3038583 -0.998481 -0.74709845 -4.282019
-1.2031251 -4.6578307
00000000: e78a dfbe c3ab 86be e155 fc3e 4f6d 25bf
00000010: 4a49 913e ea3a 35be 610c 37be 7015 aebe
00000020: 477e febd 7ce3 acbd fc8e 77bd d43c a8be
00000030: 1691 ae3e edb4 36be 2925 223f 1b92 f73b
00000040: 8c66 a4be 1213 bc3d 260e ac3c 6443 84be
00000050: 26df 3dbe ce28 d6bc 9082 d03c 45e2 a1be
00000060: 2cef 1d3e 0a8b 4a3e 661a 15be 4b7f 623e
00000070: 4918 ab3d 2d6d 2dbe 4309 04bd 657c 79bc
00000080: a395 ddbb c7e2 2fbe e223 443f 4b90 073d
00000090: 2d51 483e 8af4 833e ff6b 68be d7a0 f73d
000000a0: 73b2 0ebf 97e6 90c0 2142 d93f 6d69 a7c0
000000b0: 35b9 89c0 739c 7fbf d841 3fbf 4d06 89c0
000000c0: 0100 9abf f30c 95c0

f1_fc3.bias f4 [5]
0.26573938 -0.25028515 -0.08568824 0.15597512 4.930597
00000000: fe0e 883e 6025 80be 517d afbd f1b7 1f3e
00000010: 73c7 9d40

f1_fc4.weight f4 [1, 5]
-0.6444532 0.34781426 0.007391642 0.23912287 0.4984466
00000000: e3fa 24bf b614 b23e 9635 f23b a0dc 743e
00000010: 6534 ff3e

f2_fc1.weight f4 [5, 2]
0.017075028 -0.0007445539 -0.03945107 -0.0006148996 -0.03771166 -0.0004886273 -0.03041022 -0.001195452
0.038960002 -4.670712
00000000: eee0 8b3c 2b2e 43ba 7297 21bd 3731 21ba
00000010: 8b77 1abd 3917 00ba db1e f9bc b6b0 9cba
00000020: 8694 1f3d 7976 95c0

f2_fc1.bias f4 [5]
2.6899996 8.120007 7.310894 5.532965 -5.3226557
00000000: f428 2c40 8ceb 0141 d8f2 e940 0d0e b140
00000010: 3253 aac0

f2_fc2.weight f4 [10, 5]
0.5003333 0.36181408 -0.003228787 -0.35775194 0.18211745 -1.5810065 0.90436995 -0.60349315
-1.719081 -2.6959274 0.1812207 -1.1110679 0.828508 -0.56917244 -0.03001822 0.075230815
-3.7093902 -2.6738243 -1.6515809 0.0045451107 -0.0014664826 0.23156478 0.3217009 0.7940938
0.68455964 0.20889975 -1.8328552 -1.2034653 -0.4145271 -0.018272584 0.09856976 -0.33668855
-0.088026315 -0.16190597 0.81844175 -0.10787736 -0.5765772 -7.557007 -0.89001167 0.0031948523
0.2559927 -0.40023178 1.7621341 0.93656015 -0.0017387127 0.3249848 0.14894904 0.6012893
-0.35318008 0.3616676
00000000: d815 003f b23f b93e 0f9a 53bb 432b b7be
00000010: ff7c 3a3e 6c5e cabf ca84 673f 877e 1abf
00000020: d90a dcbf 138a 2cc0 eb91 393e 7937 8ebf
00000030: 1a19 543f 49b5 11bf c5e8 f5bc 9d12 9a3d
00000040: a666 6dc0 f01f 2bc0 0167 d3bf 27ef 943b
00000050: fe36 c0ba 511f 6d3e fbb5 a43e bb49 4b3f
00000060: 4d3f 2f3f d1e9 553e 009b eabf 270b 9abf
00000070: e53c d4be 63b0 95bc f1de c93d 7162 acbe
00000080: 2447 b4bd aeca 25be 6685 513f ceee dcbd
00000090: 909a 13bf 00d3 f1c0 ced7 63bf ba60 513b
000000a0: 7a11 833e 2eeb ccbe 9c8d e13f 68c2 6f3f
000000b0: 84e5 e3ba 6864 a63e 1986 183e 18ee 193f
000000c0: 05d4 b4be 7f2c b93e

f2_fc2.bias f4 [10]
-0.28034398 6.5307493 0.22334275 1.3186966 -0.35523775 0.5864631 -0.7020603 -1.298012
-0.059509467 0.25648075
00000000: 3f89 8fbe e6fb d040 f6b3 643e 0dcb a83f
00000010: b9e1 b5be 7222 163f 39ba 33bf 4225 a6bf
00000020: 33c0 73bd 7251 833e

f2_fc3.weight f4 [5, 10]
0.10485358 -0.20991401 0.17545079 0.81266 0.27378494 0.303986 -0.1565367 -0.3564577
0.062718734 -0.21952978 0.49034056 -0.5788985 -0.050564762 0.035461687 -0.07713998 0.13502255
-0.17235003 0.98471254 -0.98005176 0.106818356 -0.10716624 0.09779514 -0.042766623 -0.00026526913
0.18077973 -0.2826095 -0.042190682 -0.98737 0.2265124 -0.17033248 0.11596824 0.08950557
0.1560878 -0.43244424 0.103061914 -0.17402275 -0.26350257 0.5688808 0.9733821 0.40761483
-0.053174693 -0.44291994 0.22702141 0.5471147 -0.33978313 0.22106 0.108558245 -0.28795275
-0.42618755 0.33217567
00000000: 79bd d63d b3f3 56be 5fa9 333e 7c0a 503f
00000010: 8a2d 8c3e 0ea4 9b3e 284b 20be a081 b6be
00000020: ae72 803d 6acc 60be eb0d fb3e b132 14bf
00000030: ff1c 4fbd 4640 113d 91fb 9dbd 5a43 0a3e
00000040: 877c 30be 1f16 7c3f ace4 7abf 95c3 da3d
00000050: f979 dbbd d248 c83d 0e2c 2fbd d213 8bb9
00000060: 521e 393e 31b2 90be 23d0 2cbd 48c4 7cbf
00000070: def2 673e a36b 2ebe c280 ed3d b24e b73d
00000080: 7bd5 1f3e 5569 ddbe 2012 d33d 0533 32be
00000090: cfe9 86be 2ca2 113f 922f 793f e4b2 d03e
000000a0: b5cd 59bd 67c6 e2be 4d78 683e b50f 0c3f
000000b0: 0ef8 adbe 8d5d 623e c953 de3d 8b6e 93be
000000c0: 4135 dabe ee12 aa3e

f2_fc3.bias f4 [5]
0.45902523 -0.34752867 0.0463625 0.1738271 0.06686545
00000000: 5b05 eb3e 47ef b1be 9be6 3d3d bbff 313e
00000010: c1f0 883d

f2_fc4.weight f4 [1, 5]
0.5345181 -0.5231181 1.7503648 -0.59615314 0.36765692
00000000: 2ed6 083f 11eb 05bf f40b e03f 7e9d 18bf
00000010: 873d bc3e
