notebooks_NN/model_wildlandfire_small.pth (torch, 17018 bytes, 36 tensors)

f1_fc1.weight f4 [5, 2]
0.023801409 4.7339832e-05 -0.10629568 0.00017695181 -0.8405019 0.23467766 -0.5699278 -1.3617659e-05
0.29715148 -0.0004153859
00000000: 2cfb c23c c28e 4638 8db1 d9bd 248c 3939
00000010: 222b 57bf 574f 703e cae6 11bf 6677 64b7
00000020: 3d24 983e 27c8 d9b9

f1_fc1.bias f4 [5]
-3.2390232 0.067692645 1.2622969 11.101951 -2.637033
00000000: 284c 4fc0 71a2 8a3d f292 a13f 97a1 3141
00000010: 26c5 28c0

f1_fc2.weight f4 [10, 5]
4.035823 1.7064918 -0.00032793797 1.6011343 0.19711351 0.73363805 -2.147946 -2.8022983
-3.8102362 -2.644659 0.024220843 0.09872444 0.0090649 -0.15792754 -0.06493685 -2.0641873
-0.43896395 0.004097159 0.0056719957 -0.1936417 2.3451025 -2.1645188 -2.6860363 -3.6494315
-2.5457995 1.2794399 -0.053706247 -7.7443154e-05 -0.118128695 0.061384466 0.37017667 1.6659231
-0.0013923316 0.067246534 -0.12357127 1.0752048 -1.5970393 -0.009171516 0.3321078 -0.8361309
3.087088 2.9193952 0.00022950796 1.5193809 0.2970503 -3.3261962 5.5355926 -0.016400676
-1.2219619 -2.3098514
00000000: 7625 8140 536e da3f 17ef abb9 f8f1 cc3f
00000010: 20d8 493e b4cf 3b3f f277 09c0 db58 33c0
00000020: e9da 73c0 1842 29c0 ca6a c63c 0a30 ca3d
00000030: f284 143c c2b7 21be 9cfd 84bd a51b 04c0
00000040: e2bf e0be 7641 863b 26dc b93b 034a 46be
00000050: 2916 1640 7a87 0ac0 05e8 2bc0 4990 69c0
00000060: 61ee 22c0 b0c4 a33f 15fb 5bbd fa68 a2b8
00000070: 75ed f1bd 476e 7b3d cc87 bd3e f83c d53f
00000080: e57e b6ba 8db8 893d ef12 fdbd 50a0 893f
00000090: c96b ccbf 2044 16bc 090a aa3e ad0c 56bf
000000a0: da92 4540 5fd7 3a40 13a8 7039 137b c23f
000000b0: fa16 983e 66e0 54c0 9323 b140 b65a 86bc
000000c0: 3f69 9cbf 9bd4 13c0

f1_fc2.bias f4 [10]
-1.6738883 1.7783656 -0.07107971 1.6362866 3.8837705 0.2870823 -0.10892036 -3.3934114
-2.6131709 6.0372853
00000000: f941 d6bf 7ca1 e33f 3d92 91bd d771 d13f
00000010: b28f 7840 74fc 923e a311 dfbd a72d 59c0
00000020: 313e 27c0 7131 c140

f1_fc3.weight f4 [5, 10]
-1.0953225 1.0683988 0.13628927 0.14683472 -2.1285274 -0.04375402 0.077384904 -0.70671517
-2.465143 0.010624027 0.33563673 -0.32503995 0.051780507 -0.23129329 0.15618895 0.04061641
0.077439904 -0.02106816 -0.3296223 -0.36726707 -1.8165958 -0.3846319 0.1055928 -0.48664802
-0.4169918 -0.12901393 -0.888905 -0.08107449 -0.8801052 -0.43142065 -1.7257571 -0.9876841
0.12927026 0.08695459 -1.2198682 -0.050282054 -0.15475777 -0.26254168 -1.9988465 -0.1633411
-0.3997987 4.807188 0.23725921 -0.101465255 -4.263753 -0.034187846 -0.1772421 1.3034568
-0.33677313 0.26925156
00000000: 8733 8cbf 4bc1 883f 6a8f 0b3e d75b 163e
00000010: cb39 08c0 6a37 33bd fa7b 9e3d 49eb 34bf
00000020: e7c4 1dc0 6610 2e3c 94d8 ab3e a36b a6be
00000030: cc17 543d 26d8 6cbe ffef 1f3e 655d 263d
00000040: d098 9e3d 2297 acbc 41c4 a8be 6e0a bcbe
00000050: 3686 e8bf 79ee c4be 0a41 d83d ee29 f9be
00000060: f37f d5be 3a1c 04be 478f 63bf 620a a6bd
00000070: 934e 61bf 2be3 dcbe 9ce5 dcbf ddd8 7cbf
00000080: 6c5f 043e 4015 b23d a424 9cbf 8ef4 4dbd
00000090: d278 1ebe dd6b 86be 34da ffbf e442 27be
000000a0: 6ab2 ccbe 7cd4 9940 14f4 723e 04cd cfbd
000000b0: aa70 88c0 8e08 0cbd f47e 35be acd7 a63f
000000c0: 876d acbe 57db 893e

f1_fc3.bias f4 [5]
0.60639733 -0.15091152 0.16916816 0.59845614 -0.9552547
00000000: db3c 1b3f 8d88 1abe 6b3a 2d3e 6c34 193f
00000010: 928b 74bf

f1_fc4.weight f4 [1, 5]
-0.45179892 0.017716086 -0.08439898 0.43493158 0.5225379
00000000: 3052 e7be 5321 913c 5fd9 acbd 5aaf de3e
00000010: 0bc5 053f

shift1_fc1.weight f4 [5, 1]
0.48788202 0.10641926 -0.32225752 0.40663517 0.3279948
00000000: accb f93e 57f2 d93d f0fe a4be 7c32 d03e
00000010: efee a73e

shift1_fc1.bias f4 [5]
2.0139532 -1.5573683 -2.7408426 1.1101022 0.34801975
00000000: 9ce4 0040 d857 c7bf f769 2fc0 d417 8e3f
00000010: a52f b23e

shift1_fc2.weight f4 [5, 5]
0.16324438 0.068913445 -0.46674132 0.10244241 0.26851302 0.42493334 -0.3458961 -7.2695346
0.0076161325 0.022405436 0.33939582 0.00040038873 0.48908952 -0.41415468 0.30671614 -0.0522583
-0.1262049 0.054374173 0.20269866 -0.12189612 -0.3018159 0.41688597 -0.7765212 0.21850793
-0.11922463
00000000: 8929 273e 7e22 8d3d b8f8 eebe 54cd d13d
00000010: 8a7a 893e dd90 d93e 4b19 b1be 07a0 e8c0
00000020: c090 f93b 9b8b b73c 4ac5 ad3e 44eb d139
00000030: f169 fa3e 150c d4be e609 9d3e cd0c 56bd
00000040: db3b 01be 74b7 5e3d 3d90 4f3e aca4 f9bd
00000050: 9d87 9abe 1472 d53e 18ca 46bf 8bc0 5f3e
00000060: 0b2c f4bd

shift1_fc2.bias f4 [5]
0.41368768 7.313873 -0.4768452 -0.76783586 1.2282829
00000000: dfce d33e 3f0b ea40 0e25 f4be e490 44bf
00000010: 6038 9d3f

shift1_fc3.weight f4 [1, 5]
-0.3967762 -0.7951761 0.17379169 0.0065772696 0.5618835
00000000: 4026 cbbe a990 4bbf 73f6 313e 2386 d73b
00000010: 99d7 0f3f

f2_fc1.weight f4 [5, 2]
-0.045777652 -0.02555382 -0.06428216 -0.0034216365 0.005904468 0.0043030945 0.055016633 0.0013417879
0.19264594 -0.03131045
00000000: 5981 3bbd 3f56 d1bc 5da6 83bd 893d 60bb
00000010: 447a c13b f900 8d3b 1f59 613d eede af3a
00000020: fa44 453e 633f 00bd

f2_fc1.bias f4 [5]
-3.0576637 2.3608115 1.4451445 -6.6560135 -6.4475474
00000000: c3b0 43c0 8917 1740 7ffa b83f 10fe d4c0
00000010: 4f52 cec0

f2_fc2.weight f4 [10, 5]
-0.26574886 0.31250185 0.39630318 -4.138357 -0.11594853 -1.0194818 -0.27693856 -3.0610056
0.05135235 -2.3389878 0.1499396 1.8187934 2.0797193 1.6274003 0.009585074 0.74152094
1.2974215 1.5951201 1.1115093 -0.24125957 -0.052253485 1.1339843 1.7139014 2.044408
0.6461433 -0.3229682 -0.32739177 0.25695828 0.7922713 -0.09265152 -1.0632669 -2.6219525
-0.6992271 -2.6524765 -0.21130107 -1.0835848 -2.8906689 -2.168323 -0.98377943 -0.010020341
-0.5702162 -6.069353 -2.353526 -7.7820964 -0.6652429 0.13489348 2.0665019 1.958073
1.0358238 0.3046386
00000000: 3c10 88be 3e00 a03e 40e8 ca3e 6c6d 84c0
00000010: 6c76 edbd 617e 82bf e4ca 8dbe 84e7 43c0
00000020: d756 523d fab1 15c0 c489 193e 39ce e83f
00000030: 1f1a 0540 a74e d03f b70a 1d3c 51d4 3d3f
00000040: e811 a63f e52c cc3f f045 8e3f c00c 77be
00000050: c007 56bd 6626 913f 1f61 db3f 95d7 0240
00000060: a669 253f 175c a5be e59f a7be 0990 833e
00000070: 4bd2 4a3f 15c0 bdbd 2119 88bf 12ce 27c0
00000080: 8c00 33bf 2dc2 29c0 4f5f 58be e8b2 8abf
00000090: b800 39c0 cec5 0ac0 f8d8 7bbf 5b2c 24bc
000000a0: b0f9 11bf 2438 c2c0 2ca0 16c0 ef06 f9c0
000000b0: 5c4d 2abf 8421 0a3e 9141 0440 23a2 fa3f
000000c0: e095 843f 97f9 9b3e

f2_fc2.bias f4 [10]
0.11797188 -0.2553369 -1.6488347 1.1761788 -1.322404 0.47648323 1.929347 -1.0172204
7.962908 -1.1407882
00000000: 3e9b f13d 85bb 82be 040d d3bf 078d 963f
00000010: 8944 a9bf 9cf5 f33e d8f4 f63f 4734 82bf
00000020: 24d0 fe40 5905 92bf

f2_fc3.weight f4 [5, 10]
-0.20963153 -0.83418995 0.16766615 0.24928412 0.118343174 -0.91434526 0.08311167 -0.4783907
-0.013958137 -0.21936338 -0.45392093 -0.2292551 -0.5511564 0.67748034 0.12531099 -0.6759682
0.7064321 0.6525928 -0.42497936 -0.08797558 -3.3011606 -2.776909 -2.9164422 -3.6934192
-1.9201124 -2.1323943 -0.6644119 -3.2290466 -1.894089 -2.4374685 -1.3640108 -0.2625441
-0.48902848 0.6179384 -0.113679335 -1.107288 1.4858538 -0.7405896 -1.9429338 0.047498576
-1.337548 -1.0609003 -0.032687083 -0.087738454 -0.38742942 -0.5110648 0.53310907 -0.988445
-0.14516436 0.13243397
00000000: a6a9 56be 798d 55bf adb0 2b3e 5644 7f3e
00000010: e85d f23d 8812 6abf 7436 aa3d a0ef f4be
00000020: abb0 64bc cba0 60be 5368 e8be d9c1 6abe
00000030: 9618 0dbf 5a6f 2d3f 8651 003e 410c 2dbf
00000040: bcd8 343f 5210 273f e596 d9be 8a2c b4bd
00000050: 3746 53c0 e1b8 31c0 fda6 3ac0 fb60 6cc0
00000060: 3ec6 f5bf 2679 08c0 e616 2abf b3a8 4ec0
00000070: 8271 f2bf 7cff 1bc0 e897 aebf 2e6c 86be
00000080: f161 fabe 3631 1e3f b6d0 e8bd 9dbb 8dbf
00000090: 7530 be3f 4897 3dbf 0eb2 f8bf de8d 423d
000000a0: c634 abbf 95cb 87bf e4e2 05bd 38b0 b3bd
000000b0: 265d c6be 25d5 02bf d679 083f bb0a 7dbf
000000c0: f7a5 14be c59c 073e

f2_fc3.bias f4 [5]
0.6009811 -0.50085425 3.3024569 0.6833964 0.7732954
00000000: e6d9 193f fc37 00bf 745b 5340 11f3 2e3f
00000010: b0f6 453f

f2_fc4.weight f4 [1, 5]
0.013619174 -0.2746195 0.40885666 0.15117916 0.14811386
00000000: f522 5f3c ed9a 8cbe a955 d13e b6ce 1a3e
00000010: 29ab 173e

shift2_fc1.weight f4 [5, 1]
0.7537868 0.5142373 -0.05625733 0.57220674 0.32990047
00000000: 2cf8 403f 0ea5 033f 166e 66bd 247c 123f
00000010: b7e8 a83e

shift2_fc1.bias f4 [5]
0.12617142 1.6633555 1.7648883 0.57874906 -0.069494955
00000000: 1533 013e d5e8 d43f dce7 e13f e628 143f
00000010: 5f53 8ebd

shift2_fc2.weight f4 [5, 5]
0.5658091 0.37146416 -0.9769539 0.15713033 0.395603 0.22926043 -0.3704468 2.2282038
-0.2386715 0.15685752 0.4573909 0.052510563 -0.9562011 0.12104999 0.36846897 0.41152444
-0.45798826 -1.9141518 0.033566035 -0.36029744 -0.97979164 -4.026586 -4.0417194 -3.1675208
0.75293154
00000000: ddd8 103f 8d30 be3e a719 7abf c6e6 203e
00000010: 7a8c ca3e 3fc3 6a3e 34ab bdbe e49a 0e40
00000020: 4d66 74be 429f 203e 242f ea3e 5115 573d
00000030: 98c9 74bf 0fe9 f73d f7a7 bc3e 55b3 d23e
00000040: 707d eabe ed02 f5bf 8a7c 093d e878 b8be
00000050: a0d3 7abf cbd9 80c0 c455 81c0 a9b8 4ac0
00000060: 1fc0 403f

shift2_fc2.bias f4 [5]
0.46900985 0.81606346 0.26075363 -1.2002101 -2.3174157
00000000: 0f22 f03e 89e9 503f 8081 853e 7ca0 99bf
00000010: 8a50 14c0

shift2_fc3.weight f4 [1, 5]
0.16650163 -0.27223825 0.13055474 0.35010454 0.55556566
00000000: 677f 2a3e d062 8bbe 24b0 053e e740 b33e
00000010: 8d39 0e3f

f3_fc1.weight f4 [5, 2]
0.5110029 0.04367485 0.2739531 -0.014237691 -0.026878864 -0.018083217 0.1252119 -0.24576986
-0.0066805836 -0.006128121
00000000: 16d1 023f 66e4 323d 9543 8c3e 3445 69bc
00000010: 1031 dcbc 4123 94bc 8c37 003e 18ab 7bbe
00000020: cce8 dabb 68ce c8bb

f3_fc1.bias f4 [5]
-3.78455 0.44300583 -1.5540433 2.5154114 -1.1910287
00000000: 1136 72c0 a9d1 e23e e4ea c6bf 80fc 2040
00000010: a173 98bf

f3_fc2.weight f4 [10, 5]
0.060421094 -0.14273588 0.098378986 0.13312486 -0.1377853 0.061395064 0.080837555 0.38958046
-0.0012794394 0.18883206 -0.018675577 0.3251916 -0.20961332 -0.5705646 0.038425248 0.15169981
-0.2488135 0.045917563 0.05048634 -0.06282006 -0.61946934 0.55262834 -0.25054705 0.18940292
0.37103614 -0.20592111 -0.5362335 0.039425556 -0.18366759 -0.25810808 -0.105771385 -0.14445962
-0.536982 -0.16053279 0.26378953 0.124123104 -0.934738 0.31474528 0.92619246 -0.29603526
0.29299513 0.124291636 -0.27597156 0.37677726 0.10955615 0.26788765 -0.22154263 0.21946645
-0.18828581 0.10503294
00000000: 1c7c 773d 5b29 12be ec7a c93d e251 083e
00000010: 9717 0dbe 6479 7b3d 298e a53d 1777 c73e
00000020: ddb2 a7ba 315d 413e 86fd 98bc 837f a63e
00000030: e0a4 56be 8610 12bf cb63 1d3d 3257 1b3e
00000040: f7c8 7ebe 0e14 3c3d c4ca 4e3d cea7 80bd
00000050: 8b95 1ebf 0d79 0d3f b447 80be d7f2 413e
00000060: 73f8 bd3e fcdc 52be 9946 09bf b17c 213d
00000070: 5b13 3cbe be26 84be ab9e d8bd 39ed 13be
00000080: a777 09bf b562 24be 6c0f 873e 4134 fe3d
00000090: fd4a 6fbf 4b26 a13e f31a 6d3f ef91 97be
000000a0: 7503 963e 9d8c fe3d 254c 8dbe f3e8 c03e
000000b0: fa5e e03d 9228 893e 12dc 62be d0bb 603e
000000c0: ffcd 40be 831b d73d

f3_fc2.bias f4 [10]
-0.16977234 -0.20774311 0.2781083 0.39914748 0.31371886 0.1614875 0.47778398 -0.050690245
0.13626847 0.122469
00000000: cdd8 2dbe 9cba 54be 3664 8e3e 0f5d cc3e
00000010: c29f a03e fb5c 253e 1aa0 f43e 93a0 4fbd
00000020: f689 0b3e 07d1 fa3d

f3_fc3.weight f4 [5, 10]
-0.1471733 -0.37750423 -0.029943233 0.1543819 0.77712846 -0.09559827 0.5128928 0.120957516
-0.9991163 0.41386545 0.12733847 0.19003351 -0.1032499 0.14411645 0.009700963 0.2060297
0.21893921 -0.13783947 0.23431034 -0.043989547 0.13213009 0.014413231 -0.11591871 -0.081270136
-0.46726575 0.2804889 -0.12476512 0.32735273 0.17527142 0.18961503 -0.26831886 0.021744674
0.033724297 0.18798187 -0.33410957 0.101121984 0.16350439 -0.33047265 0.27908546 0.04728232
-0.20292358 0.086863786 -0.0066156997 0.058282666 -0.14395899 -0.29677024 0.2619361 -0.45700377
0.15948978 0.0065484727
00000000: 99b4 16be 3c48 c1be 834b f5bc 4a16 1e3e
00000010: e4f1 463f 07c9 c3bd f14c 033f 93b8 f73d
00000020: 16c6 7fbf 2ce6 d33e 0465 023e 2598 423e
00000030: af74 d3bd 4393 133e caf0 1e3c 73f9 523e
00000040: 9a31 603e ca25 0dbe 0def 6f3e 622e 34bd
00000050: 1c4d 073e 7925 6c3c ca66 edbd f570 a6bd
00000060: 753d efbe 3e9c 8f3e db84 ffbd c79a a73e
00000070: 5a7a 333e 712a 423e 1761 89be e321 b23c
00000080: 7d22 0a3d 527e 403e 6910 abbe 0b19 cf3d
00000090: b26d 273e b633 a9be 4ae4 8e3e 1bab 413d
000000a0: 33cb 4fbe a4e5 b13d 83c8 d8bb ceb9 6e3d
000000b0: fc69 13be 45f2 97be 7d1c 863e 66fc e9be
000000c0: 4a51 233e 9294 d63b

f3_fc3.bias f4 [5]
0.7865104 0.04611477 -0.1151819 -0.15689485 0.3174696
00000000: bf58 493f d7e2 3c3d 7de4 ebbd 0ba9 20be
00000010: 608b a23e

f3_fc4.weight f4 [1, 5]
0.13796611 -0.18178958 0.27401018 -0.31228447 0.47716472
00000000: fd46 0d3e 0c27 3abe 104b 8c3e c0e3 9fbe
00000010: ef4e f43e

shift3_fc1.weight f4 [5, 1]
-0.1013381 0.5302009 0.89079744 0.11829584 0.4727138
00000000: 5a8a cfbd 3fbb 073f 4d0b 643f 1745 f23d
00000010: 8b07 f23e

shift3_fc1.bias f4 [5]
9.08002 8.311235 11.651869 10.555238 -3.0674798
00000000: c347 1141 d2fa 0441 0e6e 3a41 41e2 2841
00000010: 9751 44c0

shift3_fc2.weight f4 [5, 5]
0.5361364 0.21941069 -1.7317235 -1.4094845 0.17445278 -0.32595932 0.04934954 -1.4817278
-1.0160065 0.7364189 2.2451923 0.5979682 0.47217464 1.2709535 -1.331343 -1.32871
-0.299871 -0.5954037 -0.43480524 -0.10236079 0.028055174 0.20335457 -1.6029534 -1.333625
0.76024127
00000000: 3c40 093f 32ad 603e 1ea9 ddbf fd69 b4bf
00000010: c0a3 323e 24e4 a6be be22 4a3d 42a9 bdbf
00000020: 800c 82bf f385 3c3f 3bb1 0f40 7214 193f
00000030: e0c0 f13e 9bae a23f 7369 aabf 2b13 aabf
00000040: b188 99be 606c 18bf cb9e debe 89a2 d1bd
00000050: f7d3 e53c 2e3c 503e 942d cdbf 39b4 aabf
00000060: 2c9f 423f

shift3_fc2.bias f4 [5]
-1.1019795 -1.0683823 7.740628 -1.4287721 -0.9572584
00000000: aa0d 8dbf c0c0 88bf 39b3 f740 01e2 b6bf
00000010: e30e 75bf

shift3_fc3.weight f4 [1, 5]
7.1442237 7.078527 -1.4826277 7.5004735 7.292187
00000000: 7b9d e440 4b83 e240 bfc6 bdbf e103 f040
00000010: 9959 e940
