notebooks_NN/model_weights_multilinear_transport.pth (torch, 7642 bytes, 14 tensors)

f1_fc1.weight f4 [5, 2]
0	0x40759a3c	3.8375387
1	0x40e2616d	7.074393
2	0xc1b10cab	-22.131186
3	0x40f36a79	7.606747
4	0xc2145dac	-37.091476
5	0xc020c4b9	-2.512007
6	0x4153ac6e	13.229597
7	0x40a2fc80	5.0933228
8	0x41a5d3ea	20.728474
9	0x3fab0faf	1.3364161

f1_fc1.bias f4 [5]
0	0xbeeb97f8	-0.4601438
1	0xbfabbd82	-1.3417208
2	0xbf91e896	-1.1399105
3	0xbfb95fc4	-1.448235
4	0x3ec560a6	0.385503

f1_fc2.weight f4 [10, 5]
0	0x4103cae2	8.237032
1	0xc089c569	-4.305348
2	0xc0505918	-3.2554379
3	0xc0b0ec6a	-5.528859
4	0xc10e9187	-8.910529
5	0xbd8fb356	-0.070166275
6	0x3f0e4511	0.55574137
7	0xc091d738	-4.557522
8	0xc075883c	-3.83644
9	0xc0ab18df	-5.346786
10	0xbfa4e16d	-1.2881294
11	0x3ec5085d	0.38482943
12	0xc031c78b	-2.7778041
13	0x3f8890bc	1.066917
14	0xc03a3b47	-2.909868
15	0x4035c2e0	2.8400192
16	0xbf000390	-0.50005436
17	0xbe36534e	-0.17805216
18	0xc0b593af	-5.674278
19	0xc031e935	-2.7798588
20	0xbf2dddce	-0.6791657
21	0x3f63cce1	0.88984495
22	0xbf39084d	-0.7227829
23	0x3f78202f	0.9692411
24	0xc0cfb759	-6.4911313
25	0x3ff34f23	1.9008526
26	0xc002b2a4	-2.0421534
27	0xbfb67e5a	-1.425731
28	0xc03a23d1	-2.908436
29	0x3f7fbf83	0.999016
30	0x3fa7cb5d	1.3108937
31	0xc0312e7a	-2.7684617
32	0xbed68828	-0.41900754
33	0x3ea2e6d0	0.3181672
34	0xbea6f1d9	-0.3260639
35	0x3fff4683	1.9943393
36	0xc0590aa8	-3.3912754
37	0x4039ba2f	2.9019887
38	0xbf99712a	-1.198766
39	0x3f8800bf	1.0625228
40	0x3f093cc7	0.53608364
41	0xbeb84fb8	-0.3599832
42	0xc03db290	-2.9640236
43	0xbf8d980e	-1.1062028
44	0x3f17323a	0.59061015
45	0xbd5174db	-0.051136833
46	0xbe07c9dd	-0.13260598
47	0x3e1a64a5	0.15077455
48	0x406e52b0	3.7237968
49	0xbfe93ad2	-1.8221076

f1_fc2.bias f4 [10]
0	0x40050ae9	2.078791
1	0x3fc524d5	1.5401865
2	0x3fa93ea5	1.3222243
3	0x3f972c8a	1.1810467
4	0xc01f50d4	-2.4893084
5	0x4018567d	2.3802788
6	0xbeeb950c	-0.4601215
7	0xc05d35aa	-3.4564004
8	0x4027ee9e	2.623939
9	0x3fa635a0	1.2985115

f1_fc3.weight f4 [5, 10]
0	0x3f227cce	0.63471687
1	0xbdaafa35	-0.083485045
2	0xbff08eb8	-1.8793554
3	0xbef7f3c9	-0.4842818
4	0xc01c4052	-2.4414258
5	0x3fdadcb3	1.7098602
6	0xc08e3c6e	-4.4448767
7	0xc0f2f7e1	-7.5927587
8	0xc044fd16	-3.0779471
9	0x3ea428d6	0.32062405
10	0x3d21d1b4	0.03950663
11	0xbec8f363	-0.3924819
12	0x3ea94c1b	0.33065876
13	0xbba220e4	-0.0049477685
14	0x3cccb8ad	0.024990404
15	0x3f2581f3	0.6465141
16	0xc070b64f	-3.7611272
17	0xbb6c4749	-0.0036053231
18	0xbe4f6f75	-0.20257361
19	0x3ce66cbd	0.028128022
20	0xbfb95a7e	-1.4480741
21	0x4008cab5	2.1373723
22	0xc089dfd5	-4.3085732
23	0x3f3e526c	0.74344516
24	0xc0f174b5	-7.5454965
25	0x3da391f4	0.07986823
26	0xbda9ba39	-0.08287472
27	0x3db576db	0.088605605
28	0xbf0ceb40	-0.55046463
29	0xbd02da32	-0.03194637
30	0x3ef15236	0.47133034
31	0x3db4d0f4	0.08828917
32	0x3fcbcaef	1.5921305
33	0xbe108640	-0.14113712
34	0xc00bee02	-2.1864018
35	0xbef46270	-0.47731352
36	0x3f3eebd6	0.7457861
37	0xc0b4a518	-5.645153
38	0xc07b25a3	-3.9241722
39	0x3eb6697d	0.35627356
40	0x3f8c3b03	1.0955509
41	0x3efcdaef	0.49385783
42	0xbdcab895	-0.098984875
43	0xbfd858dd	-1.6902119
44	0x3fb625df	1.4230307
45	0xbfad6605	-1.3546759
46	0x403aeb60	2.9206161
47	0xc07042fd	-3.7540886
48	0x3e628e89	0.22124685
49	0xbfe49b03	-1.7859806

f1_fc3.bias f4 [5]
0	0xc0b0c3e4	-5.5239124
1	0x3f082ece	0.5319642
2	0xc0774931	-3.8638422
3	0xbfb92921	-1.4465677
4	0x3e531c62	0.20616296

f1_fc4.weight f4 [1, 5]
0	0xbe5f6446	-0.21815595
1	0x3eb672ee	0.3563456
2	0x3edeae83	0.43492517
3	0x3ea9fa8e	0.3319897
4	0x3f26c6a6	0.65146863

f2_fc1.weight f4 [5, 2]
0	0x409be47b	4.8716407
1	0x408ceeb8	4.4041405
2	0xc1d0ae6a	-26.085163
3	0xc13064bb	-11.024592
4	0xc181ae80	-16.210205
5	0xc103de6a	-8.2418
6	0xc248a634	-50.162308
7	0xbe589f40	-0.21154499
8	0x418726a1	16.893862
9	0x3feb69f2	1.8391707

f2_fc1.bias f4 [5]
0	0xbf125776	-0.57164705
1	0x401ad2f1	2.4191248
2	0xbeb4311d	-0.3519372
3	0xc01fe9a5	-2.4986355
4	0x3edbaa4a	0.42903358

f2_fc2.weight f4 [10, 5]
0	0x404f50f6	3.2393165
1	0x3f90966b	1.1295904
2	0xc00cc05e	-2.1992412
3	0xbf8bf49e	-1.0934026
4	0xc0c05afd	-6.011107
5	0x40ba65e9	5.82494
6	0x40903476	4.506404
7	0xc0b6d7df	-5.7138515
8	0xbf395476	-0.723945
9	0xc0a574f7	-5.170528
10	0x3fcd7066	1.6049926
11	0x403dffa4	2.968728
12	0xc070537f	-3.7550962
13	0xc0184c93	-2.3796737
14	0xc032da0d	-2.7945588
15	0x3f02da37	0.5111422
16	0xbf7379b1	-0.9510756
17	0xc0caa3bd	-6.3324876
18	0xbd8ac477	-0.06775754
19	0xc00d6c06	-2.2097182
20	0x40e910ce	7.2833014
21	0x3f02d0c4	0.510998
22	0xbf267226	-0.65017927
23	0x3e0b65e7	0.13613091
24	0xc130639e	-11.024321
25	0xc0bb63b8	-5.8559227
26	0xc04a2626	-3.1585784
27	0xc0a3a8ec	-5.1143703
28	0xbf3f5d2d	-0.7475155
29	0xc11185f7	-9.095206
30	0x3edd3170	0.4320178
31	0x3f584007	0.844727
32	0xc0cccdf3	-6.4001403
33	0xc098c35c	-4.7738476
34	0xc107219c	-8.445705
35	0xc0745605	-3.8177502
36	0x3f637927	0.8885674
37	0xbf8ccc67	-1.0999879
38	0xc0233fb1	-2.5507624
39	0xc01e3ba5	-2.4723904
40	0x3f101467	0.5628113
41	0xbfc25326	-1.5181625
42	0xbdf3329b	-0.118748866
43	0x3f19c8dd	0.6007212
44	0xc00ca66e	-2.197658
45	0xbfc70460	-1.554821
46	0x3fb79fdc	1.434566
47	0xc0513c2d	-3.2692978
48	0xbefc7e94	-0.4931532
49	0xbfcb3a5e	-1.5877187

f2_fc2.bias f4 [10]
0	0xbece79b7	-0.40327236
1	0xc1292bfa	-10.573236
2	0xbfcf6efd	-1.6205746
3	0xc0740a99	-3.8131468
4	0xc103ae67	-8.230079
5	0x40042741	2.0648959
6	0xc09ce74e	-4.9032354
7	0x3f6fb6cd	0.93638307
8	0x40145e81	2.318268
9	0xbece3991	-0.40278295

f2_fc3.weight f4 [5, 10]
0	0x405464ec	3.3186598
1	0xbf9b1182	-1.2114718
2	0xbf20fa70	-0.6288214
3	0x4022c7d3	2.5434463
4	0xbec241e3	-0.37940893
5	0xbf703e92	-0.93845475
6	0xc031f8a8	-2.7808018
7	0x3e844d05	0.2584001
8	0xbfbdef12	-1.4838583
9	0x3f7e3305	0.992966
10	0x403b6710	2.9281654
11	0xbfa52c32	-1.2904112
12	0xbdecad6b	-0.11556514
13	0xbffe98de	-1.9890401
14	0xbfe8e1bb	-1.8193887
15	0x3ff455ad	1.9088646
16	0xc01fdac1	-2.4977267
17	0x3f0e6f5a	0.5563866
18	0x400f1cf1	2.2361414
19	0xbea37c64	-0.3193084
20	0xbf53693a	-0.8258244
21	0x401c6b73	2.4440582
22	0x3fefe6f5	1.8742357
23	0x3fb0dfa0	1.3818245
24	0x40771492	3.8606305
25	0xbea497e5	-0.32147136
26	0x401b063f	2.4222562
27	0xbf8eb070	-1.1147594
28	0xc0aff295	-5.498362
29	0xbf1f9675	-0.62338954
30	0xbef84986	-0.48493594
31	0x3fb15017	1.3852566
32	0x401172c8	2.2726307
33	0x3f609f90	0.87743473
34	0x400e4b43	2.2233436
35	0xbf7c901d	-0.986574
36	0xbee1f681	-0.4413338
37	0xc00e7f56	-2.226522
38	0xc04a006b	-3.1562755
39	0xbeab5008	-0.33459496
40	0x3fcb7f0c	1.5898147
41	0xc022e0af	-2.5449636
42	0x3f11b682	0.5691911
43	0xc03552f4	-2.833188
44	0x3c1ed2ed	0.009693843
45	0x3f513d19	0.8173385
46	0xbfbdb226	-1.4819992
47	0xbfb585ce	-1.4181459
48	0x3fd9cd78	1.7015829
49	0x3fc362a4	1.5264478

f2_fc3.bias f4 [5]
0	0xc01a95c5	-2.4153912
1	0x3eb0e0c7	0.34546492
2	0xc0ae960b	-5.455816
3	0xc08bd68b	-4.3699393
4	0xc0add7ca	-5.4325914

f2_fc4.weight f4 [1, 5]
0	0x3ed229e8	0.41047597
1	0xbeeae18e	-0.4587521
2	0x3e4bfc7b	0.19920532
3	0xbeb3055b	-0.34965023
4	0x3ee345b6	0.44389123
