notebooks_NN/model_weights_for_wildlandfire_model.pth (torch, 7338 bytes, 14 tensors)

f1_fc1.weight f4 [5, 2]
00000000: ab55 07bc 62e4 b8ba f1ba d1be 02b6 52bf
00000010: f669 4ebf 972d 3d3f 0e87 43be 1807 15b8
00000020: 5b7d 583e ccc1 06b9
-0.008260171 -0.0014106149 -0.40962937 -0.8230897 -0.80630434 0.7389769 -0.19094488 -3.5530975e-05
0.2114157 -0.00012851431

f1_fc1.bias f4 [5]
00000000: 104b 5dbf b423 0dc0 ebda 873f f3af ff40
00000010: 6091 1cc0
-0.8644266 -2.2053041 1.0613683 7.990228 -2.446373

f1_fc2.weight f4 [10, 5]
00000000: d1b1 463e 741d 143f 39d0 b9be 8579 613f
00000010: f047 973d 4d88 3abd 3470 7bc0 2c80 73c0
00000020: 34cb 7cc0 374c 3ebf 60ad 4e3d cb02 f63e
00000030: b713 a93d a7fa 2ebf d20b 59be 74d6 083e
00000040: 3659 8a3e a9d7 e73d cf52 8dbe 4f13 d2be
00000050: 84ef 94bd a618 a1c0 740e b0c0 4013 bac0
00000060: bfd2 a0bf b499 c23e 1bae c0be fabb c33e
00000070: d1b7 99be bf5e 96bc 2370 8f3e b5b8 e4bd
00000080: 62e2 eabb f0ab 423f fc2c 0cbe cf87 2dbf
00000090: e602 943d 36a2 d0bd f1db aabd 8b4a 10bf
000000a0: 5e27 b23e 9055 e93d 003d 6ebd d7b3 fd3e
000000b0: e14e 933d da0f 52c0 328a 0b40 c859 04c0
000000c0: 5d8c 5dc0 339b 62bf
0.19403769 0.5785744 -0.36291674 0.8807605 0.07386768 -0.045540143 -3.9287233 -3.804698
-3.9499025 -0.74335045 0.050458312 0.48049006 0.082557134 -0.68351215 -0.21195915 0.13363057
0.27021188 0.11320431 -0.2760224 -0.41030356 -0.072722465 -5.034259 -5.5017643 -5.81485
-1.2564315 0.3800789 -0.37632832 0.38229352 -0.30023053 -0.018355725 0.2801524 -0.111680426
-0.0071681 0.76043606 -0.13689035 -0.6778535 0.07227115 -0.10187189 -0.08342732 -0.56363744
0.3479566 0.11393273 -0.058163643 0.4955127 0.07192779 -3.2822175 2.1803098 -2.0679798
-3.461692 -0.88518065

f1_fc2.bias f4 [10]
00000000: fdd4 e8be c8da 3240 d57e e5be 0682 4c3e
00000010: 8350 d440 9c4f 0d3f 9c5d 853d e1da adbf
00000020: 1491 4a3d 1709 c640
-0.45474997 2.7946033 -0.44823328 0.19971475 6.634828 0.551996 0.06511995 -1.3582422
0.049454764 6.1886096

f1_fc3.weight f4 [5, 10]
00000000: 68d3 e5be 6ef6 b93f 02ef 413f 93ea a7be
00000010: c232 cfbf d5a1 09be d3a5 13be 5ab7 dcbd
00000020: 43f4 99be 2b1f 3d3f 3967 cf3d 898e 83be
00000030: 5c17 e33d 5aa8 1fbe bcb1 6e3e 0fa7 a03c
00000040: d1ff f93d e630 8a3d d257 80bd 14a4 d1be
00000050: e565 25be 832e a6bd bcd4 363d 5110 92be
00000060: fa6e 00be 40f7 173e 33a8 bbbd 9413 5f3e
00000070: d4b0 843c aadf 2cbe 3f03 5dbf 34ac a7bd
00000080: 61fb 1dbe a906 0cbd 9dd3 6ebe 48c7 9abd
00000090: e5e7 5dbd 2775 993e 9822 eabd d8d8 8a3e
000000a0: 8f3b 43bd e6d0 9440 c914 163f a3a8 e93e
000000b0: 9981 8dc0 eaed b6bd b089 3ebd 8777 923f
000000c0: 488b 9fbe a01c 953d
-0.44887853 1.4528329 0.7575532 -0.32796153 -1.6187365 -0.1344064 -0.14418726 -0.10777159
-0.3006917 0.73875684 0.1012711 -0.25694683 0.1108844 -0.15591565 0.23309988 0.01961091
0.12206996 0.06747608 -0.062667504 -0.40945494 -0.16152151 -0.0811434 0.044636473 -0.28528073
-0.12542334 0.14840412 -0.09162941 0.21784812 0.0161976 -0.16882196 -0.8633308 -0.08187142
-0.15427925 -0.03418604 -0.23322912 -0.07557541 -0.05417623 0.29972193 -0.114323795 0.27118564
-0.04766422 4.6505003 0.58625466 0.45636472 -4.42207 -0.08932097 -0.046518028 1.1442727
-0.3116095 0.072808504

f1_fc3.bias f4 [5]
00000000: 8266 d2bd 85dc 92be a6f7 ecbd a549 2a3e
00000010: 1319 4cbf
-0.10273458 -0.28683868 -0.11570673 0.16629656 -0.7972576

f1_fc4.weight f4 [1, 5]
00000000: b5ac 7fbe bc2d 3939 7690 3f3c 11db 723d
00000010: 2bd3 093f
-0.24968226 0.00017660012 0.011692157 0.05929095 0.5383784

f2_fc1.weight f4 [5, 2]
00000000: 2129 053d 5cd8 1b3a 59f4 0dbe a93d 1a3a
00000010: 05fa d5bd 2a24 11bb d8ed 12be 7ec3 9abe
00000020: 95ea eb3e 06ef daba
0.032509927 0.0005945021 -0.13862742 0.0005883822 -0.10448078 -0.00221468 -0.14348543 -0.30227274
0.4607741 -0.0016703315

f2_fc1.bias f4 [5]
00000000: 461a 31c0 3639 7f40 8ce5 cd3f 603a 96c0
00000010: c60c cac0
-2.7672286 3.9878669 1.6085677 -4.694626 -6.3140593

f2_fc2.weight f4 [10, 5]
00000000: 3f59 a63e 7ba5 043d 2e16 0ebd 4292 d1bf
00000010: 049d b1be 6993 46bf 3f45 acbc ab9e 75c0
00000020: a47c cd3e ce68 07bf 87dd ff3d 7faa c93f
00000030: 1aa7 cf3f fcd8 963f 1a92 6d3e eff3 683f
00000040: 8f77 bc3f d7fe b53f d7a1 983f ae47 b8be
00000050: 3e6d 0f3e 367c b93f 739b b03f df8c f33f
00000060: d686 143f f98c 513e b54f 8c3c b69c 03bf
00000070: 13cc dd3e d0e9 dabe 27cc f8be b282 02c0
00000080: 5af2 bdbf 84b5 debf 709d 1fbe b267 3ebf
00000090: 6c8f 2ac0 891e 1ec0 4483 4b3f 1f42 ecbe
000000a0: 4785 b2be a4fd bac0 fe15 30c0 01e7 fcc0
000000b0: b5fd 25bf 649d 883e 22ca 0840 fe71 0340
000000c0: d06a 893f 8ecd 943e
0.32489964 0.032384377 -0.03468912 -1.6372759 -0.34690106 -0.7756868 -0.021029113 -3.8378093
0.40134156 -0.52894294 0.12493425 1.5755156 1.622287 1.1784968 0.23200265 0.90997213
1.4723986 1.4218396 1.192439 -0.35992187 0.14006516 1.4491031 1.3797439 1.9027365
0.58018243 0.20463933 0.017127851 -0.51410997 0.4331976 -0.4275651 -0.48593256 -2.039227
-1.4839585 -1.7399144 -0.15587401 -0.74376976 -2.6650038 -2.4706137 0.7949717 -0.46144196
-0.34867308 -5.843462 -2.7513423 -7.9031987 -0.6484025 0.2668258 2.1373372 2.0538325
1.0735722 0.29063076

f2_fc2.bias f4 [10]
00000000: 3200 f6be 9cc8 f4be 487e cabf 130a 813f
00000010: b976 babf 641e 34bd 71b0 b33f 93b2 aebf
00000020: 10fc f740 73e5 a2bf
-0.48047024 -0.47809303 -1.5819788 1.00812 -1.4567481 -0.043974295 1.4038221 -1.3648247
7.7495193 -1.2726272

f2_fc3.weight f4 [5, 10]
00000000: 84cf a8be d0ed b2be e201 163c 85f3 9a3e
00000010: e2f3 cc3d 88c8 a1bd fb11 22bf eb05 48be
00000020: feb2 c53e 2c9a e8be 87b8 f23c 8414 b43b
00000030: f0e7 e1be 7fe7 2e3e dee8 1dbd efbe 01be
00000040: 5a31 963e 97d3 2b3f f0e3 e1bd 2832 19be
00000050: e637 89c0 1852 73c0 9385 e4bf e0b4 93c0
00000060: 808c 57bf 326c 00c0 d096 e93d 382f 87c0
00000070: 5442 59c0 c386 8cbf e159 66be 9e0d a6be
00000080: 206d 5dbe c60c 453e 1db4 2bbe f1f0 5bbf
00000090: a06e 7b3f 6f50 36bf db11 37bf f8d9 023e
000000a0: 5549 fcbe 07af 52bf e2dd c2bd c94f 9d3e
000000b0: 49c9 bfbe 822c 053d b2bb 033f 38b7 4ebf
000000c0: 6c4d 55bf cbba bd3d
-0.32970822 -0.34947062 0.009155722 0.30263916 0.100074545 -0.078995764 -0.63308686 -0.19533508
0.38613123 -0.45430124 0.029629005 0.0054956097 -0.44122267 0.17080496 -0.038552158 -0.12670492
0.29334527 0.67119735 -0.11029804 -0.1496054 -4.2880735 -3.8018856 -1.7853264 -4.6158295
-0.8419876 -2.0066037 0.11405718 -4.224514 -3.3946733 -1.0978626 -0.22495224 -0.32432264
-0.21623659 0.19243154 -0.16767927 -0.8591452 0.98215675 -0.7121648 -0.7151162 0.12778461
-0.49274698 -0.8229832 -0.09514977 0.30724934 -0.37458256 0.03251315 0.51458275 -0.8074832
-0.8332126 0.092641436

f2_fc3.bias f4 [5]
00000000: 4dff b43e bff6 18bf 0f08 8a40 4248 153f
00000010: 6df4 133f
0.3535103 -0.59751505 4.3134837 0.5831338 0.5779484

f2_fc4.weight f4 [1, 5]
00000000: 2825 193c 0cfb 1dbe 27e8 f93e 9baf e8bc
00000010: 55fd bf3c
0.009347238 -0.15427798 0.4880993 -0.028404048 0.023436228
